…
model.add(Activation('relu'))
# Add Dropout
model.add(Dropout(0.4))
# 3rd Fully Connected Layer
model.add(Dense(1000))
model.add(Activation('relu'))
# Add Dropout
model.add(Dropout(0.4))
# Output Layer
model.add(Dense(4))
model.add(Activation('softmax'))
model.summary()

# Compile the model
model.compile(loss = 'categorical_crossentropy', optimizer='adam', metrics=['accuracy'])
Model: "sequential"
_________________________________________________________________
 Layer (type)                Output Shape              Param #   
=================================================================
 conv2d (Conv2D)             (None, 54, 54, 96)        34944     
                                                                 
 activation (Activation)     (None, 54, 54, 96)        0         
                                                                 
 max_pooling2d (MaxPooling2D  (None, 27, 27, 96)       0         
 )                                                               
                                                                 
 conv2d_1 (Conv2D)           (None, 17, 17, 256)       2973952   
                                                                 
 activation_1 (Activation)   (None, 17, 17, 256)       0         
                                                                 
 max_pooling2d_1 (MaxPooling  (None, 8, 8, 256)        0         
 2D)                                                             
                                                                 
 conv2d_2 (Conv2D)           (None, 6, 6, 384)         885120    
                                                                 
 activation_2 (Activation)   (None, 6, 6, 384)         0         
                                                                 
 conv2d_3 (Conv2D)           (None, 4, 4, 384)         1327488   
                                                                 
 activation_3 (Activation)   (None, 4, 4, 384)         0         
...
Total params: 28,041,484
Trainable params: 28,041,484
Non-trainable params: 0
train_datagen=ImageDataGenerator(rescale=1./255,shear_range=0.2,zoom_range=0.2,horizontal_flip=True)
test_datagen=ImageDataGenerator(rescale=1./255)
training_set=train_datagen.flow_from_directory('dataset/Train',target_size=(224,224),batch_size=32,class_mode='categorical')
test_set=test_datagen.flow_from_directory('dataset/Test',target_size=(224,224),batch_size=32,class_mode='categorical',shuffle=False)
…
